numpredic_98accuracy.pt (torch_old, 438627 bytes, 6 tensors)

layer1.weight f4 [128, 784]
000000 a9 6c dd 3c fc ea 24 3c 77 40 fb bb 83 7c b8 3b
       0.027029352 0.01006579 -0.007667597 0.0056300773
000010 8d 82 f0 bc a1 c2 b9 bc cf 44 fb bc 7f 4c 94 bc
       -0.029359126 -0.022675814 -0.030672459 -0.018102882
000020 ba 58 60 bc 03 ca c3 3b b8 28 22 bc bf dc d1 bb
       -0.013693029 0.0059750094 -0.009897403 -0.006404489
000030 d0 55 78 bc 59 8d 92 bc 36 08 20 bc 80 ed 11 bd
       -0.015157178 -0.017889665 -0.009767583 -0.03562689
000040 e6 be 12 bd 7b bf a8 3c 9e fc 06 bd 61 97 db 3c
       -0.035826586 0.020599118 -0.03295576 0.026805582
000050 15 1a f0 b9 b9 57 79 bc 2c af 80 3c 34 e5 20 bc
       -0.000457958 -0.015218669 0.015708528 -0.009820271
000060 d1 f7 ec bc 8b 30 f7 bc 3e b2 3a 3c 9d ce eb 3c
       -0.028926762 -0.030174514 0.011395035 0.028785044
000070 21 0e eb 3c 86 db fe bc 04 28 7f bc b2 25 1c bd
       0.02869326 -0.031110536 -0.015573505 -0.038121887
000080 00 3e 21 bd 7e 9d 5f 3c ec 57 d4 bc e8 61 21 bd
       -0.03936577 0.013648389 -0.02592083 -0.03940001
000090 ad 89 2b 3c be 83 13 bd 5b 27 4f 3c 7c 61 0c bd
       0.010469836 -0.03601431 0.01264366 -0.034272656
0000a0 cb 65 a1 3c b1 2f 0d 3c 7a c4 5b bc 98 d0 8c bc
       0.019701859 0.008617328 -0.013413543 -0.017189309
0000b0 04 36 c1 3c 84 ff e6 3c d4 1f d4 bc aa c9 d9 3b
       0.023585327 0.028198011 -0.025894083 0.0066463547
0000c0 58 c5 b7 3b cd 7f 83 3b e1 de d8 bb c0 60 05 bd
       0.005608242 0.004013038 -0.006618366 -0.03256297
0000d0 a4 3f 46 bc a5 0b a4 bc a2 81 58 bc f3 d6 f3 3c
       -0.012100134 -0.020025084 -0.013214501 0.029765582
0000e0 10 4a 13 bc cf de fa bc c2 05 81 3c 84 21 8e 3c
       -0.008989826 -0.030623822 0.015749816 0.017349966
0000f0 09 54 d7 ba 2d 3b 24 bd b9 a8 e2 3c ca 59 9b 3c
       -0.0016428243 -0.040095497 0.027668344 0.018963713
000100 84 cc 1b bd c2 4a 28 bb 46 48 cf 3c 2d 80 9d bc
       -0.03803684 -0.0025679325 0.025303017 -0.019226158
000110 60 bc f9 ba e6 54 25 3c 2b 4d 0c 3c 63 d3 f3 bc
       -0.0019053333 0.010091042 0.00856332 -0.029763883
000120 1d ed ad 3c 47 d7 34 ba e1 85 a3 bc 73 51 92 3c
       0.021231228 -0.0006898534 -0.0199613 0.017861104
000130 f2 b9 f1 3c 81 d6 84 3c eb 32 99 3c 1c 0d be bc
       0.029507611 0.016215565 0.018701037 -0.02319961
000140 f4 60 9f 3c 17 db 99 bc e3 2a d4 3c 7c dc 50 3c
       0.01945541 -0.018781228 0.025899356 0.01274788
000150 b7 44 8e bc 53 90 f9 bc bd 56 17 3c 43 a3 80 3c
       -0.01736675 -0.030464327 0.009236989 0.01570285
000160 c2 83 e3 bc a8 ee 47 3b 2a d3 0e bb 61 61 fe 3c
       -0.027772788 0.003050724 -0.0021793344 0.031052293
000170 db 4a 17 bd 1b 17 46 bb 64 b5 5b 3a 5a b5 3c 3c
       -0.036936622 -0.0030226174 0.00083812163 0.011517847
000180 8c 07 eb 3c 85 28 88 bc ff 7d 08 3d da ac ef bc
       0.028690122 -0.016620884 0.033323284 -0.029257227
000190 41 79 80 ba f2 e9 5e bc 30 e4 c0 3c 2e 67 0e bd
       -0.0009801761 -0.013605582 0.023546308 -0.03476637
0001a0 8f 34 f7 bc 23 1c 99 bb 8c 7b 7d bc ce df 1b 3c
       -0.03017643 -0.0046725436 -0.01547135 0.009513808
0001b0 19 72 84 3c bc b3 03 bb e8 61 1f bb 64 5c 74 bb
       0.016167687 -0.0020096144 -0.0024319831 -0.0037286514
0001c0 ae 0f 18 bc 9a 6b 29 bc 10 fb 3e bc 36 45 b5 3c
       -0.009281082 -0.010340596 -0.011656538 0.022127729
0001d0 bc 6e f4 bc f7 3b bf bc 76 b6 3c 3c 57 3a f1 bc
       -0.029837959 -0.023344023 0.011518111 -0.029446764
0001e0 d0 9c 62 3c b5 18 e4 3c 9e ab bd 3c 0e 48 3e 3d
       0.013831332 0.027843812 0.023153123 0.046455435
0001f0 ba 09 21 3d 56 c8 c7 bb ea 98 06 3d e3 b7 32 3c
       0.039315917 -0.00609688 0.032860674 0.0109081
000200 da 0f fb 3c f3 67 1d 3c 22 d8 69 bc dd 5a 73 3c
       0.030647207 0.009607303 -0.0142727215 0.014853206
000210 44 50 74 bb e7 e2 98 3c 78 f6 97 3c 50 27 2c 3d
       -0.0037279287 0.018662883 0.018550143 0.04202968
000220 38 64 f4 3c ee d4 02 bd 47 f4 52 bc 8b db a9 bc
       0.029832944 -0.031941347 -0.012875623 -0.020734569
000230 2a b4 15 bd 44 91 fd 3b 48 fe c6 bc bc d6 cf 3c
       -0.03654877 0.0077382643 -0.024291173 0.025370948
000240 9e c7 d8 bb d9 fb 58 bd 40 dd 5c bb 04 38 94 ba
       -0.006615593 -0.052974556 -0.0033701211 -0.0011308198
000250 8f c7 c1 bc db 44 aa 3c 81 f1 f1 bb 73 85 a7 3c
       -0.023654727 0.020784786 -0.007383526 0.020449376
000260 21 69 40 3c bd 94 ba bb 3b 9f 3d 3d 38 16 35 bd
       0.011743815 -0.0056940005 0.046294432 -0.044210643
000270 08 94 d8 3c 29 2e b6 3c 18 93 34 bd 49 f9 28 bd
       0.026437774 0.022238808 -0.044085592 -0.04125336
000280 31 52 4a 3b 93 0b 48 bc 57 1b e0 3c 71 3e f4 3c
       0.0030871744 -0.012209791 0.027356787 0.02981493
000290 69 5a 07 3c b7 40 e6 bc 91 ef 34 bb 76 d7 d5 bc
       0.008261302 -0.02810703 -0.0027608613 -0.026103716
0002a0 8c fd 11 bc d7 9a 83 3c a6 81 c7 bb fe 1c ed 3b
       -0.008910548 0.016065044 -0.0060884533 0.007236122
0002b0 27 cf 2b bd ca e1 b6 3b 77 0e 34 bd 5c 32 2c bd
       -0.041945603 0.0055811154 -0.043959107 -0.042040214
0002c0 f1 67 0f 3b da 7e db bc aa 0c aa bc 05 e4 07 3c
       0.0021882022 -0.026793886 -0.020757992 0.00829411
0002d0 44 11 5b bc cf d4 b0 3c f9 59 20 3d c4 e4 01 3d
       -0.013370816 0.02158585 0.039148305 0.03171231
0002e0 e3 08 e6 3c 11 ce c2 bc 8e df f6 bc 35 b3 f7 3c
       0.02808041 -0.0237799 -0.030135896 0.03023682
0002f0 ae 13 90 bc af 10 8a bc 4f 70 35 bc 77 16 ac bc
       -0.017587509 -0.016853658 -0.01107414 -0.021006806
000300 95 9c 88 3b ba 22 b8 3c ae e6 9f bc 61 43 04 bd
       0.0041690567 0.022477496 -0.019519176 -0.03229082
000310 9f 93 9a bb 4c 5c 96 3c a6 eb 7b 39 1e bf a1 3c
       -0.004717305 0.018354557 0.00024025011 0.019744452
000320 38 62 e7 bc 95 48 12 bd 1a 29 a5 3b e9 31 ee bc
       -0.028245077 -0.03571375 0.0050403 -0.029076533
000330 f2 ee d1 3a ad 69 35 bd f7 4f 21 3a 62 4a 15 3d
       0.0016016646 -0.044290233 0.0006153578 0.03644789
000340 3a 09 89 bc d6 c8 4e 3d 73 20 65 3c 17 45 af 3c
       -0.016728032 0.0504845 0.013984787 0.02139525
000350 28 79 de 3b da 13 89 3c 07 77 bb 3c 59 f2 b4 3b
       0.0067893453 0.016733099 0.022883905 0.005522054
000360 1e db 13 bd 78 0c f4 3c 76 04 dc bc 6e 03 5f 3c
       -0.03609764 0.029791102 -0.026857596 0.013611658
000370 23 eb 0c bc d0 86 95 bb 3d cd 39 3c a7 b6 5e 3c
       -0.008600983 -0.00456319 0.0113404365 0.013593352
000380 61 14 c3 bb 37 b3 84 bb 66 fb 3f bc b7 9c 11 bd
       -0.005953357 -0.0040496844 -0.011717653 -0.035549846
000390 15 21 07 bd d0 25 64 bd b8 e7 1f bd cf 91 5b bd
       -0.032990534 -0.055700123 -0.039039344 -0.05360585
0003a0 96 c1 14 bd 6e ab 08 bb 56 c2 f2 3c 95 a3 2c 3c
       -0.03631743 -0.0020854133 0.029633682 0.010537048
0003b0 f3 a5 2b 3b 3e 82 a7 3c 8a f2 b0 bd f3 ce d6 bc
       0.0026191443 0.020447847 -0.08640011 -0.026221728
0003c0 25 24 81 bb c3 2a 79 3b ac 9c bd bc a2 2d b5 3b
       -0.0039410763 0.0038019873 -0.023145996 0.0055291215
0003d0 62 06 55 bc e9 2d 8c bc c8 81 30 3b 4d 79 45 bc
       -0.01300201 -0.017111735 0.0026932824 -0.012052846
0003e0 0b c2 20 3c 29 c0 42 3d e7 90 5f 3c 65 6d f2 bc
       0.009811888 0.04754654 0.013645387 -0.029593179
0003f0 55 0e 8c bc 09 60 02 bd 66 1b 0d bd 67 d5 3a bd
       -0.017096678 -0.031829868 -0.034449957 -0.045613673

layer1.bias f4 [128]
000000 60 ee 1f 3d 0a dc 09 bd e5 37 9f 3b d7 b4 08 3d
       0.03904569 -0.03365711 0.004858958 0.033375587
000010 78 f2 7c 3c 28 3a 01 bd 3f 4d 9e 3c 9d e9 08 3c
       0.015438668 -0.031549603 0.019323943 0.008356479
000020 24 7f 28 3c 2b 1c f6 3c 7f 12 09 bd a7 f4 e5 3c
       0.010284219 0.030042728 -0.033464905 0.02807076
000030 0f 09 e1 bc 72 f7 63 bc 38 78 89 3c f5 8c 83 3b
       -0.02747014 -0.013913976 0.016780958 0.004014606
000040 43 7f b4 3c 14 d9 23 bc c9 ca f0 bc f6 a5 8c 3b
       0.02203334 -0.010000486 -0.02939357 0.004292245
000050 be ca b9 ba 10 11 0d 3d 49 8e a8 bc ea 88 ad 3c
       -0.0014174802 0.0344401 -0.02057566 0.02118345
000060 9c 47 d2 3c 85 97 89 bc d7 c0 04 bd 22 b6 ea bc
       0.025668912 -0.016795883 -0.03241047 -0.0286513
000070 63 a0 b1 3c 56 94 bf 3c 00 4d 34 bc 9b 97 93 bc
       0.021682924 0.023386162 -0.011004686 -0.018016627
000080 76 18 40 bb 5a a7 03 3d a6 53 e0 3c c5 0d 07 bd
       -0.0029311455 0.03214202 0.027383637 -0.032972116
000090 18 10 32 bd 19 66 80 bc a7 9a bc bc aa cf f1 bb
       -0.04347238 -0.015673684 -0.023022963 -0.007379492
0000a0 f5 25 58 bc c3 b6 95 3c 8f 76 41 3b 5d fa ca bc
       -0.013192643 0.018275624 0.002952013 -0.024777586
0000b0 39 8b 8d bc 9e 8d 67 3c 29 ff a8 3c 4a c4 40 3c
       -0.0172783 0.014132885 0.020629482 0.011765549
0000c0 69 e4 bb 3c cb f5 04 bd db 11 4a bc 8a 55 cc bc
       0.022936063 -0.03246097 -0.012333359 -0.024943132
0000d0 63 24 9c 3c c6 87 d6 3b a8 28 19 3d 1a ff 2e bc
       0.01906032 0.006546947 0.03739229 -0.010680938
0000e0 cb 0a c9 3c 19 23 40 bc e9 33 22 bd 12 04 0e 3c
       0.02454128 -0.011727118 -0.039600287 0.008667963
0000f0 5f da 35 bc 64 2a ed bc 92 e8 16 bb 40 14 20 3c
       -0.011099427 -0.028950877 -0.0023026806 0.009770453
000100 d6 0e a1 bc ba 4f 1c bc 3b da fd bc a5 d9 52 bc
       -0.019660395 -0.009540493 -0.03098785 -0.012869273
000110 7b 6f 1b bb aa 13 ce bc f3 47 af 3c d5 b3 8c bb
       -0.002371757 -0.02515586 0.021396613 -0.0042938986
000120 5a c9 9c 3c ad 3e a0 bc 61 11 63 3b 66 2d c2 bc
       0.01913898 -0.019561136 0.003464781 -0.023703288
000130 26 05 de 3c f4 c7 29 3c 25 f2 e7 bc ba ae 10 bc
       0.027102064 0.010362614 -0.028313706 -0.008830721
000140 2c bb e0 3c 79 78 27 bc a0 7b ae 3c 88 8a 61 3c
       0.027433 -0.010221594 0.021299183 0.013765939
000150 f0 c7 a4 3b 0d 94 fa 3c 70 de 10 bd 18 eb 1b bc
       0.005028717 0.030588174 -0.035368383 -0.0095165
000160 47 82 27 bd 09 3f 8a 3c eb eb 60 3c ea 5e df 3c
       -0.040895727 0.01687576 0.013728122 0.027266938
000170 95 d2 7b 3c 96 1c 9e 3c 76 3b 2c bc 5f cf f1 3b
       0.015370031 0.01930074 -0.0105122235 0.007379457
000180 ec d4 5c 3c c4 15 32 bb 81 52 c0 3c 05 a2 b4 3c
       0.013478499 -0.0027173618 0.02347684 0.022049913
000190 4b 1f 4f bc a6 6f b8 b8 7d 18 15 bd 9b 2b 8c 3c
       -0.012641738 -8.7946e-05 -0.036400307 0.017110636
0001a0 df cf 80 bc 78 1d 71 3c bc f5 de 3c 11 ba 91 bb
       -0.01572412 0.014716499 0.027216785 -0.0044472297
0001b0 93 55 42 3b 87 7b d5 bc d7 85 ce 3c 0a 57 06 3c
       0.0029653057 -0.026059879 0.025210304 0.008199463
0001c0 f5 19 ca ba e8 62 00 3d 2e e0 80 39 a2 7c a1 bc
       -0.0015419113 0.031344324 0.0002458109 -0.01971275
0001d0 2d 1a 0b 3d 33 50 82 bc a8 73 e5 ba 61 59 07 bd
       0.03396051 -0.015907383 -0.0017505782 -0.033044223
0001e0 18 c3 5a bb 6f 41 d5 bc a6 d2 94 3c 86 f3 e5 3c
       -0.0033380445 -0.026032178 0.018166851 0.028070223
0001f0 06 14 29 bb 26 c5 95 3c d8 79 09 3c f5 1a 9b bc
       -0.0025799288 0.018282484 0.008390866 -0.018933753

layer2.weight f4 [64, 128]
000000 28 14 01 3e da 01 1a bc 46 cf 39 3c d5 90 1c 3e
       0.12605345 -0.0093998555 0.011340922 0.15289624
000010 1e ff 6e 3d 40 a2 23 bd 37 35 a2 3d 34 ec 4c 3e
       0.058348767 -0.039949656 0.07920306 0.2001198
000020 77 aa 83 bd 06 d0 d3 3d cb b9 85 bd bd 6a ca bd
       -0.06428998 0.10342412 -0.06529578 -0.0988364
000030 2d 9f d2 3d 5c 2a 08 3d 84 b8 06 be 44 80 28 3e
       0.102842666 0.033243522 -0.13156325 0.1645518
000040 94 32 af 3d f3 29 c2 3d da 2b 8e 3d ec b6 3f ba
       0.08554569 0.094806574 0.06941958 -0.0007313329
000050 a8 f7 b1 bc 17 33 00 3e 23 62 d2 3d cb 60 a7 bd
       -0.021724537 0.12519489 0.10272624 -0.08172759
000060 5f 9b 0f 3e 51 b1 eb 3d cf d7 d1 3d 64 87 57 3d
       0.14024113 0.1150843 0.1024624 0.052619353
000070 0a 69 4c 3d af 19 e9 bc b5 df 11 ba 89 f2 2e 3e
       0.04990486 -0.02845463 -0.0005564646 0.17084707
000080 4b a7 4c bc de 54 9d bc 66 c8 eb bd 37 c4 8f bd
       -0.012491058 -0.019205507 -0.11512832 -0.07019847
000090 46 39 c9 bd fc be 25 3b 95 45 1b be 98 14 df bd
       -0.09825377 0.0025290838 -0.15163262 -0.108926
0000a0 bf 58 a3 3d a3 9f f5 3c 98 32 2a 3d ad ce 80 3d
       0.07975911 0.029983347 0.041552156 0.0628942
0000b0 df fb 2d bd bd d4 04 3e 43 59 89 bd 95 a4 cc bd
       -0.04247653 0.12971778 -0.067064784 -0.09992329
0000c0 cc df 5b bd 04 84 0d be 43 57 b8 3d 1d a9 40 3e
       -0.053680226 -0.13819891 0.09001019 0.18814512
0000d0 f0 c4 41 bd 5f a1 3e 3d 6c a0 81 3d ac 77 84 3a
       -0.047306955 0.046540614 0.06329426 0.0010106466
0000e0 e6 5a 3a be 59 6e eb 3b 0d 02 b2 3c c9 66 21 3d
       -0.18198738 0.0071847853 0.021729494 0.039404664
0000f0 4a 9f 05 3e 11 5e 2d 3d 3f ac 20 bc c0 04 e4 3d
       0.13049045 0.042326037 -0.009806692 0.111337185
000100 0c 03 8a bc ac 8b 64 3d 2c 89 bf 3d 5a 34 63 bd
       -0.016847156 0.055797264 0.09352335 -0.05546985
000110 fa 04 9a bc 27 ac 97 3d d4 95 1a be 10 e1 37 be
       -0.018801201 0.07405882 -0.15096217 -0.17956948
000120 a2 4f f9 3d ce b5 43 3e a1 4b 7f 3d ad ff 0d bd
       0.12173392 0.19112322 0.062327985 -0.03466766
000130 2b aa 9b 3d 0e 3b c5 3d 63 79 3f bd 43 4c 2d bd
       0.07600816 0.096304044 -0.046746623 -0.042309057
000140 6b 9e bb bd 1c 96 5f 3c e7 b0 e1 bc 8f 54 4d be
       -0.09161075 0.013646629 -0.027550174 -0.20051788
000150 d9 91 fc bc 6d 6b 7b b9 0e 5f 1b 3e 8c 25 a8 3d
       -0.030831264 -0.00023977245 0.15172979 0.082102865
000160 90 08 9e 3d ef ad 0a 3d 07 26 ff 3d 21 f0 a2 bd
       0.07716477 0.033857282 0.12458425 -0.07955957
000170 cf 3c 8d bd e1 10 bc 3d ca 6e 36 3e 94 38 70 bc
       -0.06896364 0.09182907 0.178157 -0.014661927
000180 62 af d4 bd 27 4b 4b ba fc 58 1c be e9 87 00 bd
       -0.10385014 -0.0007755034 -0.1526832 -0.031379614
000190 d5 7f 0a bd 0a fc 12 3d 0c d4 25 3d 0c 54 fb 3b
       -0.033813316 0.035884894 0.040485427 0.0076699313
0001a0 88 32 b7 3d 13 27 79 bc 31 3b 57 3d cb ad e6 3d
       0.08945185 -0.01520707 0.052546684 0.11263617
0001b0 19 1b 1c bd c8 8c 09 be c4 6d b1 3d 0a 69 e3 bd
       -0.03811178 -0.1343261 0.08663514 -0.11104019
0001c0 a4 6b 60 3d dc 90 e9 3d ae bb 74 bd 90 4c 0a 3d
       0.054790154 0.11404583 -0.059749298 0.033764422
0001d0 f7 84 00 3e dd 21 3f be d9 50 d0 3d c3 a1 1c bd
       0.12550722 -0.18665262 0.101716705 -0.038240205
0001e0 fd fb 8f bd a6 2c 20 3c 21 dc 8e 3c a4 02 e7 bd
       -0.07030485 0.00977627 0.01743895 -0.112798005
0001f0 59 45 9c bc 9c 58 eb 3d 55 ab ba 3d 2f 17 fb bd
       -0.019076036 0.1149151 0.0911471 -0.12260281
000200 b8 94 ea 3c d7 8f 17 bd 2a 04 96 bd ce 29 14 be
       0.028635368 -0.03700241 -0.07325013 -0.14469072
000210 fe 85 9b bd 53 49 a4 3d 9c 71 96 bd 36 33 7a 3d
       -0.07593916 0.08021798 -0.07345888 0.061083995
000220 11 aa c0 3d d9 45 18 3e ff 41 5a be 94 f1 fe bc
       0.094074376 0.14870395 -0.21314238 -0.031121053
000230 a1 39 f8 bd b2 0a 38 3d da 1a 1f 3d 98 08 c8 3b
       -0.12120367 0.044932075 0.038843967 0.00610454
000240 89 b9 07 3c c0 6a 4f bc 8c 7d 0a be 5e 84 ed 3d
       0.008283981 -0.0126597285 -0.13524455 0.11597513
000250 7a ac fc 3c 1d ce ae 3d d3 9b 7a 3c 01 af 36 bd
       0.030843962 0.08535407 0.01529594 -0.04460049
000260 92 5f 80 3e a4 61 08 be 63 5d 1a 3e 0f 8a 1c 3d
       0.25072914 -0.13318497 0.15074687 0.0382176
000270 6f ea 33 3e b7 13 1b 3e 32 0f 24 3d 8b bc 5e bd
       0.17569898 0.1514424 0.040053554 -0.054379027
000280 ff dc 79 bd 15 e8 c8 bd 0f 71 16 3d 9c c0 86 bd
       -0.061001774 -0.09809891 0.036728915 -0.06579706
000290 57 74 82 bd 8c 3f a9 bd b8 9b c6 bd b3 fa f6 3c
       -0.06369846 -0.08264074 -0.0969767 0.03014884
0002a0 8d 12 24 3e d7 1e e7 bc 92 82 c5 bb 0d 1a d5 3d
       0.16022702 -0.028212948 -0.006027528 0.104053594
0002b0 de d7 b6 be bc ba 16 3d 4a 15 41 be d0 ea 99 3b
       -0.3571157 0.036799178 -0.18855777 0.0046971813
0002c0 71 6b 7f bb d1 32 4d be d5 8d e5 3d 9f c3 6c 3e
       -0.0038973952 -0.20038916 0.11208693 0.23121499
0002d0 b4 2b 86 bd 2f 42 7d bc e3 4e be 3d e3 dd b6 bd
       -0.065513045 -0.015457674 0.0929239 -0.0892904
0002e0 83 93 30 be 85 4c 07 3e 73 12 70 bd 18 68 ac bd
       -0.17243771 0.13212784 -0.058611345 -0.08418292
0002f0 29 bb 25 3e 50 d3 8a bd 2d 75 8b be 18 6b 7e 3d
       0.16184677 -0.06778586 -0.27237836 0.06211385
000300 86 f0 6f 3d 9e 37 94 3d 26 d6 ea 3d 15 b2 01 3e
       0.05857899 0.07237171 0.11466627 0.12665589
000310 4e 02 2c be 27 67 81 3b ec 8c a4 3d 14 2f 33 be
       -0.16797754 0.0039490643 0.08034691 -0.17498428
000320 d8 bd 2d be ac cb 81 3d 3b 81 93 3d ce cb b7 bd
       -0.16966951 0.063376755 0.07202383 -0.089744195
000330 32 f8 9e bd 71 9a a4 3c 4a 4c 00 3e a3 ab ad 3b
       -0.07762183 0.020093175 0.12529102 0.0053000017
000340 64 3d 7e bd e3 02 31 3d be c5 6c be b5 d3 7f be
       -0.062070265 0.043215644 -0.23122308 -0.24983104
000350 98 2d dd bc d2 96 a8 bd 04 b3 64 bd b0 1b 5a 3e
       -0.02699928 -0.08231892 -0.055834785 0.21299624
000360 8f 9c 0b be 81 e3 5f 3e 50 48 e3 3d b1 a5 84 3d
       -0.13633941 0.2186413 0.11097777 0.06476916
000370 23 ed 9d bd 5c 9e 0f 3e dd 41 bf 3d 26 e3 8e 3d
       -0.07711246 0.14025253 0.09338734 0.06976919
000380 96 96 26 be 69 b4 91 3d ac 6d 24 be 62 8f 45 bd
       -0.16268381 0.07114489 -0.16057462 -0.048232444
000390 5b fa 49 bd 8a 5a 7a bb b4 4c 3b 3d 7e 9b 1b 3d
       -0.049311023 -0.0038200938 0.045727447 0.037990086
0003a0 1c e7 0c 3e bf a1 0e be ab 0c 9d bc 2d 5b d4 bc
       0.13760036 -0.13928889 -0.01917108 -0.025922382
0003b0 0b 92 8d bc 2b 31 1a be 5f 7f 5d 3c 66 01 99 3d
       -0.017281553 -0.15057819 0.013519137 0.0747097
0003c0 ce 12 94 3d 09 9e 38 3e 07 b6 89 bd 6b 2c ce bd
       0.07230149 0.18029036 -0.06724172 -0.10067066
0003d0 72 6b 32 3e 81 7f 1f 3d 7a a8 cb 3d 2a 2e 10 3e
       0.174238 0.038939957 0.09944244 0.1408011
0003e0 c0 a5 96 bc 21 70 1c 3d fe 88 57 bd 6d f9 9b ba
       -0.018389583 0.038192872 -0.05262088 -0.0011899896
0003f0 9a 61 01 bd e9 07 77 3e 76 43 c8 3b 8d a9 14 be
       -0.03158722 0.24124111 0.0061115576 -0.14517803

layer2.bias f4 [64]
000000 2f fb 8d 3d 68 5e 97 bc c1 58 9d bd 61 93 df b9
       0.06932675 -0.018477634 -0.07682944 -0.0004264368
000010 84 ba c1 3d 5f 9f 07 3d 39 ae 87 3d f3 c2 28 bd
       0.09459403 0.033110972 0.06625027 -0.041201543
000020 31 6d c0 3d 1f 26 a1 bd f5 3b 73 bd ea c4 10 bc
       0.093958266 -0.07868599 -0.05938335 -0.0088360105
000030 46 c8 1f 3d 82 15 a7 3d 6e db 1f 3d 9f f9 4d 3d
       0.039009355 0.08158399 0.039027624 0.050286885
000040 51 af ce 3d 34 69 6e 3d 3a 0b a0 3c 74 8e e3 bc
       0.10092033 0.0582058 0.019536603 -0.027777888
000050 d7 4e 88 bd 75 66 7f 3d 9d fb 4a bd d2 62 dd 3c
       -0.066556625 0.06235357 -0.049556363 0.02702466
000060 a6 bf 37 bd ad 5e df bc 6f 8e a9 3d fd 34 32 bd
       -0.044860505 -0.027266825 0.0827912 -0.043507565
000070 f1 50 10 3d f2 27 ce 3d df 0e f1 3d 1a 8e 74 3d
       0.03523344 0.10066213 0.117704146 0.05970583
000080 80 da ae 3c 65 15 3e 3d 48 a2 f4 3c 9b aa 1d bb
       0.021344423 0.046407122 0.029862538 -0.0024057988
000090 b4 96 95 3d ab 61 41 bd c6 27 45 3d 6d 9c e2 3c
       0.07304135 -0.047212284 0.048133634 0.02766248
0000a0 f5 2e ac 3d 66 98 a5 bd bd e7 93 bd b2 21 8c 3c
       0.08407394 -0.08085708 -0.07221935 0.01710591
0000b0 fd d7 b4 3c 10 ef 52 3d 37 0b 36 bd 23 70 75 bd
       0.022075647 0.05149752 -0.04444429 -0.059921395
0000c0 86 db cd bc 7d f2 e7 bc c1 d2 f1 3c c6 a6 95 3b
       -0.025129091 -0.02831387 0.02951944 0.004567
0000d0 83 60 09 bd a1 b7 96 bd 06 a6 ba 3c de 31 59 bd
       -0.033539306 -0.07359243 0.022784244 -0.053026073
0000e0 74 03 69 bd db 96 a1 bd 27 a9 37 3d e2 8a 4e bc
       -0.05688806 -0.078901015 0.04483905 -0.012606354
0000f0 35 5e 95 bc fc 02 a7 bd a1 41 75 bd 89 ee 84 3d
       -0.018233398 -0.08154866 -0.05987704 0.064908095

layer3.weight f4 [10, 64]
000000 03 2a c4 bd c6 33 b5 3e d8 66 72 be 55 53 be be
       -0.095783256 0.35391062 -0.23672044 -0.37172952
000010 fb 2f be 3e e8 68 1b 3e a0 93 9b 3b 8a 99 36 be
       0.3714598 0.15176737 0.004747823 -0.17832008
000020 93 fd 0a bd d3 ae fe bd 4e c5 51 be 2a 2f cc bc
       -0.033933233 -0.12435689 -0.20485422 -0.024924833
000030 60 4d 1f be 13 3d 23 3d 6a f3 d4 3e b2 29 37 3e
       -0.1555686 0.039853167 0.4159196 0.17886999
000040 f6 c8 3f be 22 ee 9a be 25 02 40 be 02 f0 f9 3d
       -0.18729004 -0.30259806 -0.18750818 0.12203981
000050 c2 92 8c be 59 64 31 3e 7e 9a ba 3d 96 cf 47 be
       -0.27455717 0.17323436 0.09111498 -0.19512782
000060 44 c4 51 3e 08 a9 a3 be 0f dc f8 3d ec 47 1e be
       0.20485026 -0.31964898 0.12151348 -0.15457124
000070 41 ed b5 be 31 9f 1a 3d ed 39 e1 3e 5d 57 c9 be
       -0.35532573 0.037749473 0.43989506 -0.39324465
000080 2d 8b 7c 3d 3b ba 18 3e 18 96 19 be 77 6c d9 3c
       0.061656166 0.14914791 -0.14998662 0.026540978
000090 a4 23 85 3e 94 c3 56 be 0f b0 9f be 61 2c bd 3c
       0.26003754 -0.20973045 -0.3118901 0.02309245
0000a0 ad 5a 89 3e e2 6e 8f bd fd c4 e5 3d b0 7f 7d 3e
       0.26826993 -0.07003571 0.11219213 0.2475574
0000b0 e3 27 1b 3e 0a 77 90 3e e0 b8 4c 3e 5d 7a ca 3d
       0.15151934 0.2821582 0.19992399 0.0988662
0000c0 3e d0 13 be 4c 0d 5f bd 65 25 5e 3e 94 3f d8 be
       -0.14434907 -0.05445604 0.21693952 -0.42236006
0000d0 12 4f 08 3f e1 50 ac be 25 02 df be b1 19 bd bd
       0.5324565 -0.33655456 -0.43556324 -0.09233416
0000e0 39 07 1a 3c 78 ac 66 be 84 b5 13 bd 0a 51 f1 3e
       0.009401136 -0.22526729 -0.03606178 0.4713214
0000f0 aa 5b 07 bd 9c cc 9b bd 61 02 fd bd 3f dd 25 3e
       -0.033046402 -0.076073855 -0.12353969 0.1619768
000100 58 5f a0 be aa 14 e6 be 0b 57 20 bc 47 b4 82 be
       -0.31322742 -0.4493764 -0.009786378 -0.25528166
000110 2a 0d 88 be 4a 73 b7 be 60 8e a6 3d 09 4c 8d 3e
       -0.26572543 -0.35830146 0.081326246 0.27597073
000120 32 22 a7 be d7 1c e7 bd c4 b5 1a be 53 b9 1f 3e
       -0.32643276 -0.11284798 -0.151084 0.1559804
000130 40 c2 a0 be 7e 97 c3 bd 36 e5 93 bc 22 cb 42 3e
       -0.313982 -0.09550379 -0.018053632 0.19022802
000140 1b c2 90 3e f4 e2 20 3f 85 7c 5d 3e b5 f9 33 be
       0.2827309 0.62846303 0.21629532 -0.17575724
000150 95 8a f9 be 26 29 89 3e 8e 7c cf bd cb d5 6a be
       -0.48738542 0.26789206 -0.10131179 -0.22933118
000160 51 fb 0b be ce dd b0 3e 79 d0 ce bb 95 1c e2 bb
       -0.13670088 0.34544224 -0.006311473 -0.00690038
000170 f9 88 1a 3e ad 3a 8a be 05 d8 0c bf a1 41 d4 3e
       0.15091313 -0.2699789 -0.5501712 0.4145632
000180 38 5e cb 3d 41 1a 3a be 51 ef 94 be 6f 5b e4 3d
       0.0993008 -0.18174078 -0.29088834 0.11150252
000190 78 3d e9 3b 76 5c d0 bd 87 fc b6 bd 82 54 b3 bd
       0.0071179233 -0.101738855 -0.089348845 -0.08756353
0001a0 90 08 0e be e1 63 b6 3b e1 0f 68 3d 78 41 dd 3d
       -0.13870454 0.0055661057 0.05665577 0.10803503
0001b0 05 65 2b 3e d4 d6 3e be f8 bf 7a 3c 93 f9 02 be
       0.16737755 -0.18636638 0.015304558 -0.12790518
0001c0 48 f2 73 3d 7c d2 c7 3b 81 23 73 be d8 36 4c 3a
       0.05955723 0.0060980897 -0.23744012 0.0007790155
0001d0 3a bb 9c be 85 00 51 3e e0 05 d4 3e a6 2d a1 3e
       -0.30611593 0.20410354 0.41410732 0.3148014
0001e0 3f c9 c8 3d b7 71 00 3f 4b 85 f9 bd 02 2a 8a 3e
       0.0980401 0.50173515 -0.12183627 0.26985174
0001f0 d5 30 79 3e 58 60 fc 3d 10 cc a4 3d 1b 07 9a 3e
       0.24335034 0.123230636 0.08046734 0.30083546
000200 99 06 8b be ba 0f 71 be f6 30 ec 3e ac 75 c0 be
       -0.2715347 -0.23541155 0.46131104 -0.37589777
000210 f0 26 00 bf 04 a9 5b 3e 5a ae d2 bc 5c 41 a2 bc
       -0.50059414 0.21451193 -0.025717903 -0.019806556
000220 b5 bf 86 3d 4f 0e 44 bd 42 5c a6 3e 59 dc 83 3e
       0.06579534 -0.04786521 0.32492262 0.2575405
000230 35 f1 87 3e e8 b0 1c bb 6b 04 c7 3c ed 6c 11 3f
       0.26551214 -0.0023909155 0.024294099 0.5680683
000240 ad 9b b1 be 59 06 ba 3e 04 2c 06 3e 07 af 05 bd
       -0.34689084 0.36332968 0.13102728 -0.032637622
000250 e9 c7 f9 3d 24 03 8d 3e 74 e1 8d 3d 4b b0 77 3e
       0.12196333 0.2754146 0.069277674 0.24188344
000260 4a 28 c9 bc 31 d0 f9 3d 7a 17 06 bd 04 7e b0 be
       -0.024555344 0.121979125 -0.032737233 -0.34471142
000270 6d cb 21 3c 4e d0 45 be fc 71 49 bd b3 3c ec be
       0.009875161 -0.19317743 -0.04918097 -0.4614006
000280 ce 00 28 3c 1f 66 c8 3e 64 6b ef 3b 14 74 b7 3d
       0.010254098 0.39140412 0.007306503 0.08957687
000290 9f 8b 0f 3e 14 66 81 be 9d b0 8a be 6b 4a ca be
       0.14018105 -0.25273192 -0.2708787 -0.395099
0002a0 aa 41 d6 3e 8a bb ee bd 5b 80 b8 3c d1 8b c9 bc
       0.41846973 -0.11656864 0.022522142 -0.024602802
0002b0 33 73 c5 be 1d 0e 14 3e 62 0d e1 3e 43 66 00 bd
       -0.38564453 0.14458509 0.43955523 -0.031347524
0002c0 dd b1 cb be 03 eb 48 bb 44 a4 fb 3e 36 84 8f 3e
       -0.39784136 -0.0030657656 0.49148762 0.28030556
0002d0 73 50 78 bd 60 c6 f6 3e 25 7e 1f be 95 dc 09 bf
       -0.060623597 0.48198223 -0.15575464 -0.53852206
0002e0 ef a9 6f 3b d5 34 97 bd 6e d0 fd ba ac 8e a3 be
       0.0036569794 -0.07383124 -0.0019364485 -0.31944788
0002f0 00 18 c4 3d 38 5d a2 39 6e b8 24 bb 30 9b 0d 3f
       0.0957489 0.000309685 -0.0025134343 0.5531492
000300 2e 05 85 3e c8 bf 38 bf 37 15 db bd 55 4b 92 be
       0.25980514 -0.72167635 -0.10697406 -0.285731
000310 fa b2 31 be 2f 08 9a 3e 1e a4 7e be b7 b9 1a 3e
       -0.1735343 0.3008437 -0.24867293 0.15109907
000320 27 d0 cd 3e 6f 06 1e be 66 df 34 3e 0b af 0f be
       0.4019787 -0.15432142 0.17663345 -0.14031617
000330 3e 52 10 3e e9 41 89 3d e1 a1 75 3e 09 6a 04 3e
       0.14093873 0.067020245 0.23987533 0.12931074
000340 c8 31 16 be cd 49 b7 be 15 3b 45 3e 3f 9b cb bd
       -0.14667428 -0.35798493 0.1926082 -0.0994172
000350 26 03 0c bd db 0b ab 3e 28 23 d3 3d ad c3 39 be
       -0.03418269 0.33407483 0.1030944 -0.1814105
000360 ae 2b 47 3e 57 d4 12 be 45 3b e4 bd b8 66 b3 bd
       0.19450256 -0.14338814 -0.11144117 -0.087598264
000370 96 b3 7a 3e d5 ce ca 3e 54 b6 22 3e 74 87 17 3f
       0.24482569 0.39610925 0.15889865 0.5919106
000380 08 b5 a1 be 97 97 bf 3e a7 9d d3 3e 83 76 f1 3d
       -0.31583428 0.3742034 0.41331217 0.117901824
000390 97 1f 23 3e 94 d5 c1 be d5 4b 09 3e b4 d8 f8 bd
       0.1593002 -0.3785826 0.13407834 -0.12150708
0003a0 5e 6f 00 bf 5d a0 07 ba bf a2 f5 3d 0a 4d 6e be
       -0.5016993 -0.00051737373 0.11993932 -0.23271576
0003b0 63 8b ea 3d b4 b9 43 be 3b 41 db 3d d1 4f a0 bc
       0.11452367 -0.19113809 0.10705801 -0.01956931
0003c0 66 da 9f 3d 77 b4 b4 be 02 18 d3 bd 09 cf 9d 3e
       0.07805328 -0.35293934 -0.103073135 0.30822018
0003d0 be 97 0a bf ba a2 6c 3e 8f 89 11 3e 69 a7 a8 3d
       -0.5413779 0.2310895 0.1421263 0.08235056
0003e0 84 d2 f2 3d 8e 91 8e be 06 f0 12 3e ac ed b1 be
       0.11856559 -0.27845424 0.14349374 -0.34751642
0003f0 55 7a 13 3e a3 28 e2 bb 94 35 b3 bd 64 ec d1 be
       0.14402135 -0.006901817 -0.087504536 -0.41000664

layer3.bias f4 [10]
000000 ed 3a 1d 3d be 77 90 3d 67 db 9d 3d a3 9b ae 3a
       0.038386274 0.07054089 0.07707863 0.001332153
000010 ce 00 a5 bd 55 93 8c bd 89 25 8e bc cf 72 48 bd
       -0.08056794 -0.06864039 -0.017351883 -0.048937615
000020 28 e1 01 3e 04 38 3e 3d
       0.12683547 0.04644014
